Loading dataset...
Shape X_train:  (700, 784)
Shape Y_train:  (700,)
Shape X_test:  (7000, 784)
Shape Y_test:  (7000,)
Dataset loaded!
Initialization of the model...
rep_init shape:  (10, 20)
Model:  AE(
  (encoder): Encoder(
    (hidden): ModuleList(
      (0): Linear(in_features=784, out_features=500, bias=True)
      (1): ReLU()
      (2): Linear(in_features=500, out_features=500, bias=True)
      (3): ReLU()
      (4): Linear(in_features=500, out_features=2000, bias=True)
      (5): ReLU()
    )
    (out): Linear(in_features=2000, out_features=10, bias=True)
  )
  (decoder): Decoder(
    (hidden): ModuleList(
      (0): Linear(in_features=10, out_features=2000, bias=True)
      (1): ReLU()
      (2): Linear(in_features=2000, out_features=500, bias=True)
      (3): ReLU()
      (4): Linear(in_features=500, out_features=500, bias=True)
      (5): ReLU()
    )
    (out): Linear(in_features=500, out_features=784, bias=True)
  )
)
Starting training on mnist...
Loading dataset...
Loading dataset...
Shape X_train:  (700, 784)
Shape Y_train:  (700,)
Shape X_test:  (7000, 784)
Shape Y_test:  (7000,)
Dataset loaded!
Initialization of the model...
rep_init shape:  (10, 20)
Model:  AE(
  (encoder): Encoder(
    (hidden): ModuleList(
      (0): Linear(in_features=784, out_features=500, bias=True)
      (1): ReLU()
      (2): Linear(in_features=500, out_features=500, bias=True)
      (3): ReLU()
      (4): Linear(in_features=500, out_features=2000, bias=True)
      (5): ReLU()
    )
    (out): Linear(in_features=2000, out_features=10, bias=True)
  )
  (decoder): Decoder(
    (hidden): ModuleList(
      (0): Linear(in_features=10, out_features=2000, bias=True)
      (1): ReLU()
      (2): Linear(in_features=2000, out_features=500, bias=True)
      (3): ReLU()
      (4): Linear(in_features=500, out_features=500, bias=True)
      (5): ReLU()
    )
    (out): Linear(in_features=500, out_features=784, bias=True)
  )
)
Starting training on mnist...
Starting lap 01 for evolution on mnist data in mode train...
shape of s torch.Size([1, 20])
shape of s torch.Size([2, 20])
shape of s torch.Size([3, 20])
shape of s torch.Size([4, 20])
shape of s torch.Size([5, 20])
shape of s torch.Size([6, 20])
shape of s torch.Size([7, 20])
shape of s torch.Size([8, 20])
shape of s torch.Size([9, 20])
s1 shape:  torch.Size([90, 10])
s2 shape:  torch.Size([90, 10])
s_alphas shape:  torch.Size([90, 10])
s1 shape:  torch.Size([10, 10])
s2 shape:  torch.Size([10, 10])
shape s_inter_rec_np =  (90, 784)
Loading dataset...
Shape X_train:  (700, 784)
Shape Y_train:  (700,)
Shape X_test:  (7000, 784)
Shape Y_test:  (7000,)
Dataset loaded!
Initialization of the model...
rep_init shape:  (10, 20)
Model:  AE(
  (encoder): Encoder(
    (hidden): ModuleList(
      (0): Linear(in_features=784, out_features=500, bias=True)
      (1): ReLU()
      (2): Linear(in_features=500, out_features=500, bias=True)
      (3): ReLU()
      (4): Linear(in_features=500, out_features=2000, bias=True)
      (5): ReLU()
    )
    (out): Linear(in_features=2000, out_features=10, bias=True)
  )
  (decoder): Decoder(
    (hidden): ModuleList(
      (0): Linear(in_features=10, out_features=2000, bias=True)
      (1): ReLU()
      (2): Linear(in_features=2000, out_features=500, bias=True)
      (3): ReLU()
      (4): Linear(in_features=500, out_features=500, bias=True)
      (5): ReLU()
    )
    (out): Linear(in_features=500, out_features=784, bias=True)
  )
)
Starting training on mnist...
Starting lap 01 for evolution on mnist data in mode train...
shape of s torch.Size([1, 20])
shape of s torch.Size([2, 20])
shape of s torch.Size([3, 20])
shape of s torch.Size([4, 20])
shape of s torch.Size([5, 20])
shape of s torch.Size([6, 20])
shape of s torch.Size([7, 20])
shape of s torch.Size([8, 20])
shape of s torch.Size([9, 20])
s1 shape:  torch.Size([90, 10])
s2 shape:  torch.Size([90, 10])
s_alphas shape:  torch.Size([90, 10])
s1 shape:  torch.Size([10, 10])
s2 shape:  torch.Size([10, 10])
shape s_inter_rec_np =  (90, 784)
(710, 784)
Loading dataset...
Shape X_train:  (700, 784)
Shape Y_train:  (700,)
Shape X_test:  (7000, 784)
Shape Y_test:  (7000,)
Dataset loaded!
Initialization of the model...
rep_init shape:  (10, 20)
Model:  AE(
  (encoder): Encoder(
    (hidden): ModuleList(
      (0): Linear(in_features=784, out_features=500, bias=True)
      (1): ReLU()
      (2): Linear(in_features=500, out_features=500, bias=True)
      (3): ReLU()
      (4): Linear(in_features=500, out_features=2000, bias=True)
      (5): ReLU()
    )
    (out): Linear(in_features=2000, out_features=10, bias=True)
  )
  (decoder): Decoder(
    (hidden): ModuleList(
      (0): Linear(in_features=10, out_features=2000, bias=True)
      (1): ReLU()
      (2): Linear(in_features=2000, out_features=500, bias=True)
      (3): ReLU()
      (4): Linear(in_features=500, out_features=500, bias=True)
      (5): ReLU()
    )
    (out): Linear(in_features=500, out_features=784, bias=True)
  )
)
Starting training on mnist...
Starting lap 01 for evolution on mnist data in mode train...
shape of s torch.Size([1, 20])
shape of s torch.Size([2, 20])
shape of s torch.Size([3, 20])
shape of s torch.Size([4, 20])
shape of s torch.Size([5, 20])
shape of s torch.Size([6, 20])
shape of s torch.Size([7, 20])
shape of s torch.Size([8, 20])
shape of s torch.Size([9, 20])
s1 shape:  torch.Size([90, 10])
s2 shape:  torch.Size([90, 10])
s_alphas shape:  torch.Size([90, 10])
s1 shape:  torch.Size([10, 10])
s2 shape:  torch.Size([10, 10])
shape s_inter_rec_np =  (90, 784)
Loading dataset...
Shape X_train:  (700, 784)
Shape Y_train:  (700,)
Shape X_test:  (7000, 784)
Shape Y_test:  (7000,)
Dataset loaded!
Initialization of the model...
rep_init shape:  (10, 20)
Model:  AE(
  (encoder): Encoder(
    (hidden): ModuleList(
      (0): Linear(in_features=784, out_features=500, bias=True)
      (1): ReLU()
      (2): Linear(in_features=500, out_features=500, bias=True)
      (3): ReLU()
      (4): Linear(in_features=500, out_features=2000, bias=True)
      (5): ReLU()
    )
    (out): Linear(in_features=2000, out_features=10, bias=True)
  )
  (decoder): Decoder(
    (hidden): ModuleList(
      (0): Linear(in_features=10, out_features=2000, bias=True)
      (1): ReLU()
      (2): Linear(in_features=2000, out_features=500, bias=True)
      (3): ReLU()
      (4): Linear(in_features=500, out_features=500, bias=True)
      (5): ReLU()
    )
    (out): Linear(in_features=500, out_features=784, bias=True)
  )
)
Starting training on mnist...
Starting lap 01 for evolution on mnist data in mode train...
shape of s torch.Size([1, 20])
shape of s torch.Size([2, 20])
shape of s torch.Size([3, 20])
shape of s torch.Size([4, 20])
shape of s torch.Size([5, 20])
shape of s torch.Size([6, 20])
shape of s torch.Size([7, 20])
shape of s torch.Size([8, 20])
shape of s torch.Size([9, 20])
s1 shape:  torch.Size([90, 10])
s2 shape:  torch.Size([90, 10])
s_alphas shape:  torch.Size([90, 10])
s1 shape:  torch.Size([10, 10])
s2 shape:  torch.Size([10, 10])
shape s_inter_rec_np =  (90, 784)
X shape:  (700, 784)
rep shape:  (10, 784)
X shape:  (700, 784)
rep shape:  (10, 1568)
X shape:  (700, 10)
rep shape:  (10, 20)
Loading dataset...
Shape X_train:  (700, 784)
Shape Y_train:  (700,)
Shape X_test:  (7000, 784)
Shape Y_test:  (7000,)
Dataset loaded!
Initialization of the model...
rep_init shape:  (10, 20)
Model:  AE(
  (encoder): Encoder(
    (hidden): ModuleList(
      (0): Linear(in_features=784, out_features=500, bias=True)
      (1): ReLU()
      (2): Linear(in_features=500, out_features=500, bias=True)
      (3): ReLU()
      (4): Linear(in_features=500, out_features=2000, bias=True)
      (5): ReLU()
    )
    (out): Linear(in_features=2000, out_features=10, bias=True)
  )
  (decoder): Decoder(
    (hidden): ModuleList(
      (0): Linear(in_features=10, out_features=2000, bias=True)
      (1): ReLU()
      (2): Linear(in_features=2000, out_features=500, bias=True)
      (3): ReLU()
      (4): Linear(in_features=500, out_features=500, bias=True)
      (5): ReLU()
    )
    (out): Linear(in_features=500, out_features=784, bias=True)
  )
)
Loading dataset...
Shape X_train:  (700, 784)
Shape Y_train:  (700,)
Shape X_test:  (7000, 784)
Shape Y_test:  (7000,)
Dataset loaded!
Initialization of the model...
rep_init shape:  (10, 20)
Model:  AE(
  (encoder): Encoder(
    (hidden): ModuleList(
      (0): Linear(in_features=784, out_features=500, bias=True)
      (1): ReLU()
      (2): Linear(in_features=500, out_features=500, bias=True)
      (3): ReLU()
      (4): Linear(in_features=500, out_features=2000, bias=True)
      (5): ReLU()
    )
    (out): Linear(in_features=2000, out_features=10, bias=True)
  )
  (decoder): Decoder(
    (hidden): ModuleList(
      (0): Linear(in_features=10, out_features=2000, bias=True)
      (1): ReLU()
      (2): Linear(in_features=2000, out_features=500, bias=True)
      (3): ReLU()
      (4): Linear(in_features=500, out_features=500, bias=True)
      (5): ReLU()
    )
    (out): Linear(in_features=500, out_features=784, bias=True)
  )
)
Starting training on mnist...
Starting lap 01 for evolution on mnist data in mode train...
shape of s torch.Size([1, 20])
shape of s torch.Size([2, 20])
shape of s torch.Size([3, 20])
shape of s torch.Size([4, 20])
shape of s torch.Size([5, 20])
shape of s torch.Size([6, 20])
shape of s torch.Size([7, 20])
shape of s torch.Size([8, 20])
shape of s torch.Size([9, 20])
…
s_alphas shape:  torch.Size([90, 10])
s1 shape:  torch.Size([10, 10])
s2 shape:  torch.Size([10, 10])
shape s_inter_rec_np =  (90, 784)
i = 0, X_full shape = (710, 784)
i = 1, X_full shape = (810, 784)
i = 2, X_full shape = (810, 10)
i = 3, X_full shape = (710, 10)
Running PCA...
Running PCA...
Runnning TSNE...
Runnning TSNE...
Loading dataset...
Loading dataset...
Shape X_train:  (700, 784)
Shape Y_train:  (700,)
Shape X_test:  (7000, 784)
Shape Y_test:  (7000,)
Dataset loaded!
Initialization of the model...
rep_init shape:  (10, 20)
Model:  AE(
  (encoder): Encoder(
    (hidden): ModuleList(
      (0): Linear(in_features=784, out_features=500, bias=True)
      (1): ReLU()
      (2): Linear(in_features=500, out_features=500, bias=True)
      (3): ReLU()
      (4): Linear(in_features=500, out_features=2000, bias=True)
      (5): ReLU()
    )
    (out): Linear(in_features=2000, out_features=10, bias=True)
  )
  (decoder): Decoder(
    (hidden): ModuleList(
      (0): Linear(in_features=10, out_features=2000, bias=True)
      (1): ReLU()
      (2): Linear(in_features=2000, out_features=500, bias=True)
      (3): ReLU()
      (4): Linear(in_features=500, out_features=500, bias=True)
      (5): ReLU()
    )
    (out): Linear(in_features=500, out_features=784, bias=True)
  )
)
Starting training on mnist...
Starting lap 01 for evolution on mnist data in mode train...
shape of s torch.Size([1, 20])
shape of s torch.Size([2, 20])
shape of s torch.Size([3, 20])
shape of s torch.Size([4, 20])
shape of s torch.Size([5, 20])
shape of s torch.Size([6, 20])
shape of s torch.Size([7, 20])
shape of s torch.Size([8, 20])
shape of s torch.Size([9, 20])
…
